tomatos.tflite (tflite, 743732 bytes, 16 tensors)

sequential_8/conv2d_12/Relu;sequential_8/conv2d_12/BiasAdd;sequential_8/conv2d_12/Conv2D;sequential_8/conv2d_12/BiasAdd/ReadVariableOp f4 [32, 3, 3, 3]
0	0xb857e884	-5.147654e-05
1	0x36ac5e3d	5.1369702e-06
2	0x38552c97	5.0824685e-05
3	0xb943aca8	-0.00018660969
4	0x399946fa	0.00029235316
5	0x37d3ad55	2.5233874e-05
6	0xba06a32d	-0.00051360094
7	0x379863f8	1.8166364e-05
8	0xb9769f7b	-0.000235198
9	0xb944cb92	-0.00018767852
10	0xb99931bd	-0.00029219492
11	0x39c76146	0.00038028712
12	0x3900dad2	0.00012288548
13	0xba12557e	-0.00055821973
14	0xb9de8f5a	-0.00042449945
15	0x397115e1	0.00022991702
16	0xb9c70b0f	-0.00037964477
17	0xb9af032c	-0.00033380964
18	0xb94d8476	-0.00019599669
19	0xb91c6550	-0.00014915061
20	0x39a33342	0.00031127973
21	0x38ed13aa	0.000113047034
22	0xb910a4e7	-0.00013794341
23	0x385088f9	4.971863e-05
24	0x38f1b7ef	0.00011526036
25	0xba122034	-0.00055742566
26	0x39d239b7	0.00040097322
27	0xb81dab88	-3.7591468e-05
28	0x39597053	0.00020736577
29	0xb96a8454	-0.00022365275
30	0xba2763d5	-0.00063854206
31	0xb9c6fda7	-0.0003795449
32	0xb8b0e35f	-8.434685e-05
33	0x39ec7ab7	0.00045104857
34	0xb981a4c3	-0.00024727554
35	0x393d2be0	0.0001804079
36	0xb94d2952	-0.00019565717
37	0xb935928a	-0.00017316095
38	0x39c64d30	0.00037823012
39	0x39cca722	0.00039034436
40	0x390e9757	0.00013598554
41	0x391d8e73	0.00015025753
42	0xba2d9e08	-0.0006622975
43	0xb91ec30d	-0.00015140716
44	0x398f76c6	0.0002736358
45	0x390099ec	0.00012264372
46	0xba2bf467	-0.0006559551
47	0xb9db2afe	-0.00041802967
48	0xb946bf81	-0.00018954092
49	0xba186880	-0.00058139116
50	0xb9ae1252	-0.00033201516
51	0xb8c0785a	-9.177691e-05
52	0xba194e60	-0.00058481656
53	0xba192219	-0.0005841568
54	0x398bba07	0.00026650747
55	0xb9b7ab8a	-0.00035032287
56	0x397dfa0d	0.00024221111
57	0xb9402ec4	-0.00018327968
58	0xb8b68e5f	-8.704955e-05
59	0x39120176	0.00013924189
60	0xb9103cae	-0.00013755515
61	0x39f0acbc	0.00045905064
62	0xb8713c7c	-5.7515208e-05
63	0xb8a476e9	-7.842278e-05
64	0x393d10a0	0.00018030638
65	0xb97f8f2c	-0.00024372031
66	0xb99973e0	-0.00029268768
67	0x3964a560	0.00021805381
68	0xb96c3fe4	-0.00022530515
69	0x391bf360	0.00014872616
70	0xb8d447a8	-0.00010122295
71	0x38ea2a23	0.00011165838
72	0xba2a2b51	-0.000649144
73	0x39f65650	0.00046985084
74	0xb96bbf31	-0.00022482571
75	0xba5258b1	-0.00080240803
76	0x397547c9	0.00023391763
77	0x396e7a54	0.0002274302
78	0x395f5c96	0.00021301428
79	0x390bc4d2	0.00013329394
80	0xba506395	-0.0007949409
81	0x3a0d1335	0.0005381585
82	0xb832dd76	-4.264476e-05
83	0xb96cbff5	-0.00022578223
84	0x3a265f5e	0.0006346608
85	0x3a165aaf	0.0005735559
86	0x3983587e	0.000250522
87	0x398f4dfe	0.00027333194
88	0x3a2d718d	0.00066163467
89	0x3a46869f	0.00075731607
90	0x37c96134	2.4006331e-05
91	0x3996c542	0.00028757198
92	0xb92beea6	-0.00016396734
93	0x38f39dba	0.00011616522
94	0xb9c56573	-0.00037650354
95	0xb9dd5420	-0.00042215083
96	0xb9e11854	-0.0004293347
97	0x386177a0	5.375559e-05
98	0xb8e257dc	-0.00010792885
99	0xb9787daf	-0.00023697944
100	0xba4473c5	-0.00074940576
101	0xba07f714	-0.0005186659
102	0xba408e8a	-0.0007345459
103	0xb9b16cce	-0.00033841137
104	0xb86a554c	-5.5869386e-05
105	0x3941a16e	0.00018466052
106	0xb9ec1998	-0.00045032497
107	0xba25d597	-0.0006326078
108	0xba16ea17	-0.0005756928
109	0xb9dd57b0	-0.00042217737
110	0xb951c0cb	-0.00020003614
111	0xb9bbeb63	-0.00035842796
112	0xba1e1c83	-0.000603147
113	0xba300494	-0.00067145494
114	0x3a17c259	0.0005789153
115	0x39c6e607	0.00037936887
116	0xb9af831d	-0.00033476288
117	0xb97537bc	-0.00023385783
118	0xba0f1407	-0.00054580014
119	0x3710da55	8.633903e-06
120	0x398e6a40	0.00027163513
121	0x3904e1f8	0.00012672681
122	0xb9b99dcf	-0.00035403526
123	0x3a393352	0.0007064837
124	0x3a5cef9c	0.00084280386
125	0x3973f520	0.00023265602
126	0xb9e78f8a	-0.00044166698
127	0xba0a51b5	-0.00052764575
128	0xb944cfb6	-0.00018769395
129	0xb918d8f4	-0.00014576671
130	0xb9468813	-0.00018933443
131	0xb9937c2d	-0.00028130543
132	0x3a1f564e	0.0006078229
133	0x3a34d6ea	0.000689848
134	0x3a4818f8	0.0007633115
135	0xb9ee46e5	-0.00045447718
136	0xb95d0a7b	-0.00021080107
137	0xba0af43e	-0.0005300677
138	0x39f5c2ce	0.00046875182
139	0x39d98548	0.00041488768
140	0xba555ca1	-0.0008139108
141	0x399595da	0.00028531143
142	0x39e3f8f1	0.0004348229
143	0xb9bf22db	-0.00036456328
144	0x3962769e	0.00021597228
145	0xb9218be8	-0.00015406276
146	0xba7a8ec7	-0.00095580186
147	0x392797bb	0.00015982885
148	0x39bc4341	0.00035908262
149	0xba504e81	-0.00079462683
150	0xb8fa55c9	-0.00011936908
151	0xb9169901	-0.00014362113
152	0xba3e0112	-0.00072480843
153	0x392ed405	0.00016672917
154	0x3a09dc9c	0.00052590086
155	0xba96437e	-0.0011464206
156	0xb8b96170	-8.8396366e-05
157	0xb8f76324	-0.00011796344
158	0xba949ac2	-0.0011337625
159	0x38c6a138	9.471405e-05
160	0xb9dc3d58	-0.00042007375
161	0xba5baef4	-0.0008380257
162	0xb97a8696	-0.00023891995
163	0x3a111b89	0.0005535414
164	0x3a228cb9	0.0006200779
165	0xb9aa758a	-0.000325125
166	0xb79fd57c	-1.9053688e-05
167	0x3951260e	0.0001994597
168	0xb975f933	-0.00023457855
169	0xb9b474ff	-0.00034419444
170	0xb840240b	-4.5809935e-05
171	0x39d52886	0.00040656718
172	0x3992a99e	0.00027973665
173	0x399e161b	0.00030152578
174	0xb9eae1bb	-0.0004480014
175	0xba39432c	-0.00070671993
176	0xba128344	-0.0005589018
177	0xba2b5811	-0.0006536255
178	0xba597ce1	-0.00082965015
179	0xba68ca42	-0.00088802364
180	0x3a33001d	0.0006828325
181	0xb918393f	-0.00014517175
182	0x39cd803a	0.00039196183
183	0x39ed27ae	0.00045233726
184	0xb7194689	-9.135933e-06
185	0x39c963e5	0.00038412135
186	0x39c9c03c	0.00038480933
187	0x395d21a6	0.00021088737
188	0xb861cd89	-5.38356e-05
189	0xba01cb95	-0.00049512956
190	0xb89002ba	-6.866963e-05
191	0xba16217d	-0.0005727036
192	0xb99783e3	-0.00028899228
193	0xba2d2235	-0.00066045235
194	0xb93470fa	-0.00017208225
195	0xba0d58dc	-0.0005391964
196	0xb9988cea	-0.00029096688
197	0x3987e23e	0.0002591777
198	0xb9a08ed4	-0.00030623993
199	0x3995b834	0.00028556737
200	0x3a04c6a5	0.0005065001
201	0xba35fd1c	-0.0006942318
202	0x38e3bf93	0.00010859887
203	0xba029c70	-0.00049824174
204	0x3938d16c	0.00017625623
205	0xb92002c9	-0.00015259827
206	0xb90911df	-0.00013071996
207	0x399915ad	0.00029198584
208	0x3858e977	5.1715844e-05
209	0x399b0f0a	0.0002957511
210	0xb99a4f9d	-0.00029432485
211	0xb78a16a2	-1.6461421e-05
212	0x3a455238	0.0007527205
213	0x3a1c10cf	0.00059534324
214	0x3a2481b4	0.0006275431
215	0x3a45df78	0.0007548253
216	0xb96affc2	-0.00022411256
217	0xb9a3b407	-0.00031223914
218	0x39cb3109	0.0003875571
219	0xb9f70879	-0.00047117824
220	0xba1fa132	-0.00060893886
221	0x39b06c4d	0.00033650026
222	0x3a2acb93	0.000651532
223	0xb825b82c	-3.951059e-05
224	0x3a248bef	0.0006276955
225	0xb9f61e6d	-0.00046943445
226	0xb991e41e	-0.00027826516
227	0xb8264a90	-3.9646926e-05
228	0xb98ae0f9	-0.0002648903
229	0xb99b1b5a	-0.00029584282
230	0xb8d70a21	-0.000102538856
231	0x39ba89e7	0.0003557943
232	0xba070694	-0.00051508215
233	0xb9f9784d	-0.00047582612
234	0xb766ca50	-1.3756173e-05
235	0xb9d78d7c	-0.0004111341
236	0xb98cc9b1	-0.00026853153
237	0xba39c5e5	-0.00070866785
238	0x395193a9	0.00019986801
239	0xba4104ff	-0.000736311
240	0x39b0aecb	0.00033699567
241	0x39013863	0.00012323404
242	0xb940bd80	-0.00018381141
243	0xb8ffb44d	-0.00012192931
244	0x3a2adf26	0.0006518237
245	0x39395e51	0.0001767811
246	0xb94b0f77	-0.0001936535
247	0x399f1e41	0.00030349384
248	0x394d6925	0.00019589493
249	0x393e740f	0.00018163047
250	0x3a4f8064	0.0007915555
251	0xb9b1482c	-0.00033813843
252	0xb9a28b42	-0.00031002803
253	0x3a0a89ab	0.00052847964
254	0xb808fe41	-3.266172e-05
255	0xba2fc031	-0.0006704359

sequential_8/conv2d_12/BiasAdd/ReadVariableOp f4 [32]
0	0xbc29eefc	-0.01037192
1	0xbcc0f83e	-0.023555871
2	0xbdaae31a	-0.083440974
3	0x3c2800f8	0.010254137
4	0xbb0a4f0d	-0.0021104247
5	0x3c15353e	0.009106932
6	0xbbbbca90	-0.0057309344
7	0xbd51ed0f	-0.051251467
8	0x3c07a22e	0.008278413
9	0xbd8daccd	-0.06917725
10	0xbd8ecbe1	-0.069724806
11	0xbbb475a5	-0.0055071884
12	0xbbcd3330	-0.0062622055
13	0xbd873494	-0.06601825
14	0xbd6a2395	-0.05716284
15	0xbcfa8474	-0.030580737
16	0xbcc81556	-0.024424236
17	0xbd0746e4	-0.03302659
18	0xbddf40e0	-0.10901046
19	0x3e1f9775	0.1558512
20	0xbd578c01	-0.052623753
21	0xbd07b082	-0.033127315
22	0xbd7c6340	-0.06161809
23	0x3cfd29fc	0.030903809
24	0x3d956564	0.07294729
25	0x3d3222cb	0.043490212
26	0xbb9de8cc	-0.0048190113
27	0x3d8187d0	0.06324732
28	0xbd770756	-0.06030973
29	0xbd52e2e1	-0.0514859
30	0xbc89fb70	-0.016843528
31	0x3ce7c9fe	0.02829456

sequential_8/conv2d_13/BiasAdd/ReadVariableOp f4 [64]
0	0x3de4a7f3	0.11164846
1	0x3d11cc5d	0.035595287
2	0x3d8bba85	0.06822685
3	0xbcb2af32	-0.021812055
4	0xbe3027b8	-0.17202652
5	0xbd5a81b8	-0.053346366
6	0x3d8cccba	0.06874986
7	0xbd0c577c	-0.03426312
8	0xbc934d52	-0.017981205
9	0xbb87a914	-0.0041400287
10	0xbdead101	-0.114656456
11	0xbde78b1f	-0.11305832
12	0xbd0bd923	-0.034142625
13	0xbdea80d3	-0.114503525
14	0xbdf1db12	-0.118093625
15	0xbd85c389	-0.06531436
16	0xbd0779c3	-0.033075105
17	0xbcf4084b	-0.02978911
18	0xbd4be3b1	-0.04977769
19	0xbe0a116d	-0.1348321
20	0xbd26ee25	-0.040754456
21	0xbd38cbfe	-0.045116417
22	0xbcd6dd74	-0.026228644
23	0xbddff4ce	-0.10935365
24	0x3bd81033	0.006593728
25	0xbd8df006	-0.069305465
26	0xbcebd6ed	-0.028789008
27	0xbdc734d8	-0.09726876
28	0xbdef94e2	-0.11698319
29	0xbd090d77	-0.033460107
30	0x3c6b3057	0.014354787
31	0x3c008cc7	0.007846064
32	0xbd18bf57	-0.03729185
33	0x3acb1a92	0.001549559
34	0xbdd7552c	-0.10514292
35	0xbcf15a8b	-0.02946212
36	0xbce857be	-0.028362151
37	0xbd03f755	-0.032218296
38	0xbd295a72	-0.04134602
39	0xbe2e5e47	-0.17028151
40	0x3aaee5ae	0.0013343596
41	0xbd99887a	-0.07496734
42	0xbd1d28d2	-0.038369007
43	0xbcb88a47	-0.022526873
44	0xbd97e01a	-0.07415791
45	0xbd588dc5	-0.052869577
46	0x3b6e936a	0.0036403784
47	0xbd6a3a1c	-0.057184324
48	0xbcff4a24	-0.031163283
49	0xbd228c1a	-0.039684393
50	0xbc7abacc	-0.015303325
51	0xbd0d196d	-0.034448076
52	0x3dd72e79	0.10506911
53	0xbd04baae	-0.032404594
54	0xbe2b7813	-0.16745023
55	0xbe180d9b	-0.1484894
56	0xbd6fca9b	-0.05854283
57	0xbcc56fbe	-0.024101134
58	0xbd6e6b23	-0.058207642
59	0xbcbb8c2c	-0.022893988
60	0xbe07a47f	-0.13246344
61	0x3cdc673f	0.0269047
62	0xbd1ebd5b	-0.038754802
63	0xbd3e585a	-0.046470977

sequential_8/conv2d_14/BiasAdd/ReadVariableOp f4 [64]
0	0xbd20bc15	-0.03924187
1	0xbc42ad5c	-0.011882152
2	0xbcc23ec3	-0.023711568
3	0xbcddc49e	-0.027071293
4	0xbd5c32ad	-0.053759266
5	0xbcf874ee	-0.030329194
6	0x3c753a8e	0.014967574
7	0xbd4790ec	-0.048722193
8	0xbd082c9e	-0.033245675
9	0xbdb8e9ea	-0.090289906
10	0xbc212ed9	-0.0098378295
11	0xbc88f4ab	-0.01671823
12	0xbccdf6b6	-0.025142055
13	0xbced924c	-0.029000424
14	0xbcdc5047	-0.026893748
15	0xbcd4f528	-0.025995806
16	0x3b36fe65	0.0027922627
17	0x3cdd2e65	0.026999662
18	0xbe31ca2c	-0.17362279
19	0xbd07ef79	-0.033187363
20	0xbd38e83d	-0.045143355
21	0xbe269255	-0.16266759
22	0xbd174318	-0.03692922
23	0xbd7b2988	-0.061318904
24	0xbcdea13a	-0.027176488
25	0xbd954dbb	-0.072902165
26	0xbdb07fa9	-0.08618099
27	0xbd120117	-0.03564557
28	0xbd26e57e	-0.040746205
29	0xbcf93799	-0.030422019
30	0x39c3a723	0.00037317825
31	0xbcebed28	-0.028799608
32	0xbdb11b28	-0.08647758
33	0xbd58ca1a	-0.052927114
34	0xbcdf09b9	-0.027226316
35	0xbd93b294	-0.072117954
36	0xbd4565b4	-0.048192695
37	0xbdadd08a	-0.08487041
38	0xbcdf9f5f	-0.027297674
39	0xbccc4fff	-0.024940489
40	0xbd4035b4	-0.046926215
41	0xbd00b6b7	-0.03142425
42	0x3c71ff60	0.014770359
43	0x3e43a3d4	0.19105464
44	0x3dc03215	0.093845524
45	0xbd6e26f0	-0.058142602
46	0xbd32a993	-0.04361875
47	0xbda84038	-0.08215374
48	0xbcc1379c	-0.023586087
49	0xbd5d0865	-0.053963084
50	0xbe5dbd08	-0.21654141
51	0xbc59f620	-0.01330331
52	0xbcceae48	-0.025229588
53	0xbd763ecf	-0.060118493
54	0xbdc2f54a	-0.095194414
55	0xbdc2d1ef	-0.09512698
56	0xbce2b50e	-0.027674224
57	0xbe08369e	-0.13302085
58	0xbe292a06	-0.16519937
59	0xbd0fe326	-0.035128735
60	0x3d7766b0	0.060400665
61	0xbc8ff323	-0.017571991
62	0xbd04626c	-0.032320425
63	0xbda7ef7f	-0.08199977

sequential_8/conv2d_15/BiasAdd/ReadVariableOp f4 [64]
0	0xbcf9f076	-0.030510169
1	0xbdad4a83	-0.084614776
2	0x3e6238d9	0.22091998
3	0xbd02d0b2	-0.03193731
4	0xbdacc39e	-0.084357485
5	0xbe987410	-0.2977605
6	0x3ddf8761	0.10914493
7	0xbe1a1737	-0.15047918
8	0xbe0075e2	-0.12544969
9	0xbd565a40	-0.052332163
10	0x3e44ee77	0.19231592
11	0xbdf37320	-0.11887193
12	0xbd3cfb7e	-0.04613828
13	0xbd698732	-0.057013698
14	0x3d08ed38	0.033429354
15	0xbd6eb878	-0.05828139
16	0xbd8d055d	-0.068857886
17	0xbd5a417f	-0.05328512
18	0x3dbf60ab	0.0934461
19	0x3d3692b0	0.044573486
20	0x3cfd2b74	0.03090451
21	0xbc472fb7	-0.012157372
22	0xbd181a46	-0.03713443
23	0xbdc56a60	-0.0963943
24	0x3d6884d6	0.056767307
25	0xbd9798ba	-0.07402177
26	0xbd55d42e	-0.052204303
27	0xbd66ce46	-0.05634906
28	0xbd9f18d8	-0.077684104
29	0x3d64ce9d	0.055861104
30	0x3c9f960a	0.019480724
31	0xbd0221c8	-0.031770498
32	0xbdde87ad	-0.10865722
33	0x3e566091	0.20935275
34	0xbd70898b	-0.05872492
35	0xbcda73dc	-0.026666574
36	0xbdddbb92	-0.10826792
37	0xbca8e873	-0.020618653
38	0x3c4b22be	0.01239842
39	0x3c2dc47e	0.010605929
40	0xbda86c37	-0.08223765
41	0xbb8caaef	-0.004292838
42	0x3c314aed	0.010821086
43	0xbd985caa	-0.07439549
44	0xbd792fd7	-0.06083664
45	0xbd87e382	-0.066351905
46	0xbc967551	-0.018366488
47	0x3be13c1e	0.0068736216
48	0x3e14ab89	0.1451856
49	0xbcd510fc	-0.026009075
50	0x3c39c811	0.011339203
51	0xbd864f40	-0.065580845
52	0x3a03019b	0.00049974927
53	0xbde11e32	-0.109920874
54	0xbc47f043	-0.012203279
55	0xbd366cf9	-0.04453752
56	0xbd0cd62c	-0.034383938
57	0xbd9423bc	-0.07233378
58	0x3d839b10	0.0642606
59	0x3d19080b	0.037361186
60	0xbd311f0c	-0.0432425
61	0x3c596488	0.013268597
62	0x3de066ae	0.109570846
63	0xbde49cff	-0.11162757

sequential_8/conv2d_16/BiasAdd/ReadVariableOp f4 [64]
0	0x3d93ae59	0.072109886
1	0x3d8afc6d	0.06786428
2	0xbca39ab9	-0.019971238
3	0xbd845bbe	-0.06462811
4	0xbd2f9223	-0.042863976
5	0xbcb81ad1	-0.022473725
6	0x3c57f483	0.013180855
7	0x3e0f6ab1	0.14005543
8	0xbc9cfa61	-0.019162359
9	0xbdac59d4	-0.08415571
10	0xbdc9a787	-0.098464064
11	0x3e2094fa	0.1568183
12	0x3df61d80	0.120173454
13	0xbc88e6f2	-0.016711686
14	0x3a2c8777	0.0006581465
15	0x3ce416b3	0.027842855
16	0x3d9428b1	0.07234324
17	0xbd0a207b	-0.033722382
18	0xbc92aa38	-0.017903432
19	0x3cb8a869	0.022541242
20	0xbd9a7af0	-0.0754298
21	0x3d74d052	0.059768982
22	0xbc317b25	-0.010832583
23	0xbd3f3e5b	-0.046690326
24	0xbd6893f5	-0.056781728
25	0x3ddcc29e	0.10779308
26	0xbdc11739	-0.094282575
27	0xbdf598b0	-0.119920135
28	0xbd1e3aa6	-0.03863015
29	0xbe0fc4e5	-0.14039953
30	0xbc9979ab	-0.018734774
31	0x3e48a570	0.1959436
32	0xbdec3547	-0.11533599
33	0xbded3ebd	-0.11584232
34	0xbd1da6d2	-0.03848917
35	0xbd21ab53	-0.039470028
36	0xbd2b00dd	-0.04174887
37	0x3e32844f	0.17433284
38	0xbd4d77b9	-0.050163005
39	0xbd4fd730	-0.05074233
40	0xbdf3c0af	-0.11901986
41	0xbdbd3f4b	-0.09240588
42	0xbe1eb2c1	-0.15497877
43	0xbdeb0b50	-0.11476767
44	0x3df2d3d2	0.11856808
45	0xbdca2f23	-0.09872272
46	0xbd98b28e	-0.074559316
47	0xbd8a21e4	-0.067447454
48	0xbdb40b83	-0.08791258
49	0xbd098e2c	-0.03358285
50	0xbd1c9579	-0.038228486
51	0x3c37a41e	0.011208562
52	0xbda7e65a	-0.08198233
53	0xbdfcb588	-0.12339312
54	0x3e3a56bc	0.18197149
55	0xbc1f8b0c	-0.009737741
56	0xbe1a93e7	-0.15095483
57	0x3e1f9791	0.15585162
58	0xbdc1266b	-0.09431156
59	0xbb1e6f44	-0.0024175206
60	0xbc19fdfb	-0.009398933
61	0x3e039d00	0.1285286
62	0xbcd040ac	-0.025421463
63	0xbd87523b	-0.06607481

sequential_8/conv2d_17/BiasAdd/ReadVariableOp f4 [64]
0	0xbdfaedbc	-0.122523755
1	0xbd04553c	-0.03230785
2	0x3d2379d7	0.039911117
3	0xbd8e7ecf	-0.069577806
4	0x3e3651db	0.17804663
5	0x3dd18904	0.10231212
6	0xbc520f3f	-0.012821018
7	0xbd837864	-0.06419447
8	0xbcf2fa6d	-0.029660428
9	0x3d9c4126	0.076296136
10	0xbccb5164	-0.024819084
11	0xbd7a0c06	-0.061046623
12	0xbc834593	-0.016024387
13	0xbd0def86	-0.034652255
14	0x3e8b2033	0.27173004
15	0xbd34f298	-0.044176668
16	0x3e0ada15	0.13559754
17	0x3dd74e19	0.10512943
18	0xbcb2cf44	-0.021827348
19	0xbcb0c556	-0.021578472
20	0xbc8637a5	-0.016383955
21	0x3b2356db	0.0024923596
22	0xbc9dc215	-0.019257585
23	0xbe235dc2	-0.15953735
24	0xbd949e4b	-0.072567545
25	0x3c29b616	0.010358354
26	0xbd3a97d5	-0.045554955
27	0x3e69d430	0.2283485
28	0xbd865134	-0.06558457
29	0xbd271dfa	-0.040800072
30	0x3db3c864	0.08778456
31	0xbdfe6227	-0.12421065
32	0xbde6181b	-0.112350665
33	0xbd24585c	-0.04012333
34	0x3d610a5b	0.054941516
35	0xbc610385	-0.013733749
36	0xbd1a3de4	-0.03765668
37	0xbc3a6da1	-0.011378677
38	0xbde39201	-0.111118324
39	0x3e5dd51f	0.2166333
40	0x3c6a0556	0.014283499
41	0xbd3a82e1	-0.045534972
42	0xbba832e0	-0.005133018
43	0xbddfe3c0	-0.10932112
44	0xbd961547	-0.07328277
45	0x3e757472	0.23970202
46	0x3dfc2d1a	0.1231329
47	0x3a5a9566	0.0008338302
48	0xbbc56902	-0.006024481
49	0xbce9f31a	-0.028558303
50	0xbc647d98	-0.0139459595
51	0x3e34b714	0.17647964
52	0xbe420677	-0.18947779
53	0xbcfeb866	-0.031093787
54	0xbde07546	-0.10959868
55	0xbca3cdf1	-0.019995661
56	0x3c82f0eb	0.01598402
57	0x3b05e60d	0.002043131
58	0xbd65fd53	-0.056149792
59	0x3cac73d1	0.02105132
60	0x3e84e0ea	0.25952846
61	0x3dd079bb	0.10179468
62	0xbdba765b	-0.09104606
63	0xbd76a007	-0.060211208

sequential_8/conv2d_13/Conv2D f4 [64, 3, 3, 32]
0	0x3d049370	0.03236717
1	0x3d4b0e7c	0.04957436
2	0xbc130ca5	-0.008975183
3	0x3c0b958c	0.0085195415
4	0x3dc186e2	0.09449555
5	0xbd327651	-0.043569867
6	0x3e552324	0.20814186
7	0xbe0b4883	-0.1360188
8	0x3dd6de5f	0.10491633
9	0xbde0e55d	-0.109812476
10	0x3c566d76	0.013087621
11	0x3de8bc6a	0.11364062
12	0xbe520d42	-0.2051287
13	0x3cb37211	0.021904977
14	0xbcadb3a7	-0.021203829
15	0x3d167328	0.036730915
16	0x3e139512	0.14412335
17	0x3ddb70e2	0.1071489
18	0x3d38892f	0.045052703
19	0xbed4b3d4	-0.41543448
20	0xbd15387c	-0.03643082
21	0xbdbb6883	-0.091507934
22	0xbd33c44e	-0.043888383
23	0xbd9047b3	-0.070449255
24	0x3d9d08d1	0.07667697
25	0xbdf64afc	-0.12026021
26	0xbc891d25	-0.01673753
27	0x3df428aa	0.119218186
28	0xbc4b638c	-0.012413871
29	0xbe0a6f4c	-0.13519019
30	0x3cce47b3	0.025180673
31	0x3d213e72	0.039366193
32	0x3d9c4b8b	0.07631596
33	0xbd4e63e6	-0.05038824
34	0xbcc24e94	-0.02371911
35	0x3e157612	0.14595821
36	0x3d8d220f	0.06891262
37	0xbd845acf	-0.06462633
38	0x3df4d248	0.119541705
39	0xbde9e178	-0.11419958
40	0x3c566b3f	0.013087093
41	0xbde91b14	-0.11382118
42	0x3bb3304e	0.005468405
43	0x3d1c57b0	0.038169563
44	0xbed12741	-0.4085026
45	0x3deb540c	0.1149064
46	0xbc8cf77d	-0.017207855
47	0xbc765ed8	-0.015037261
48	0x3d79bc8f	0.06097084
49	0x3db94921	0.09047151
50	0x3ddb0879	0.106949754
51	0xbea93950	-0.33051538
52	0x3bff14c8	0.0077844597
53	0xbdd6b434	-0.1048359
54	0x3d668119	0.05627546
55	0xbe12109a	-0.14264145
56	0xbca17812	-0.019710574
57	0xbd05191a	-0.03249464
58	0xbc03bdb9	-0.008040839
59	0x3deaeb62	0.11470677
60	0x3ca122ee	0.019669976
61	0xbd61429a	-0.054995157
62	0x3dc75d4d	0.097345926
63	0x3e0d88a0	0.1382165
64	0xbaed4cf9	-0.0018104605
65	0x3c47f079	0.012203329
66	0xbd1d6247	-0.038423803
67	0x3e220616	0.15822634
68	0x3d77d723	0.060507905
69	0xbd16555d	-0.036702503
70	0x3df0ed11	0.11763967
71	0xbdb33c78	-0.08751768
72	0x3cb7c9b0	0.02243504
73	0xbe0efff2	-0.13964823
74	0xbd00b5bf	-0.031423327
75	0x3d9344f9	0.0719089
76	0xbe822ed1	-0.25426343
77	0x3dccea81	0.100056656
78	0xbc3e4ad8	-0.011614524
79	0xbd0a52dd	-0.03377043
80	0x3dac8e1a	0.08425541
81	0xbc086dd7	-0.008326969
82	0xbc264e99	-0.010150575
83	0xbec8b107	-0.3919756
84	0xbc84aa71	-0.016194554
85	0xbdc2b26a	-0.09506686
86	0xbda71745	-0.08158735
87	0xbe0c75a9	-0.13716759
88	0x3da81304	0.08206752
89	0xbda3c0fb	-0.079957925
90	0xbd0166c0	-0.03159213
91	0x3d0532b2	0.03251905
92	0xbc7dee94	-0.015498776
93	0xbd4eefa8	-0.050521523
94	0x3d95007f	0.07275485
95	0xbc59643d	-0.013268528
96	0xbb4e3e93	-0.0031470403
97	0xbcd3a346	-0.02583469
98	0x3ce8eaff	0.028432367
99	0x3da77465	0.08176497
100	0x3d81f285	0.06345085
101	0xbb75d813	-0.0037512823
102	0x3e91f75f	0.28509042
103	0x3dee67c6	0.11640887
104	0x3da9b409	0.08286292
105	0xbe0499ce	-0.12949297
106	0xbdcb2866	-0.09919815
107	0x3d789d23	0.060696732
108	0xbe7a1724	-0.2442289
109	0xbd1da525	-0.038487572
110	0x3dc06b92	0.093955174
111	0x3da50020	0.080566645
112	0x3e1c220a	0.1524736
113	0xbc28ee49	-0.010310718
114	0x3dd650c7	0.10464626
115	0xbe89d061	-0.26916793
116	0x3d810a33	0.063007735
117	0xbdda81fb	-0.10669323
118	0x3bc2cf44	0.005945118
119	0xbe004497	-0.12526165
120	0xbd1d4b1b	-0.038401704
121	0xbdfb6eb4	-0.12276974
122	0x3d9091c1	0.0705905
123	0x3e901a2a	0.28144962
124	0x3d0cc180	0.034364223
125	0x3a06cfd1	0.00051426614
126	0xbcb81700	-0.022471905
127	0x3e207122	0.15668157
128	0x3d45653e	0.048192255
129	0xbd7a649f	-0.061131116
130	0xbd91d080	-0.07119846
131	0x3e13cda2	0.14433911
132	0x3d62eceb	0.055401724
133	0x3d4fe7d1	0.050758187
134	0x3e006aab	0.1254069
135	0xbd0d26cb	-0.034460824
136	0xbc60da6c	-0.013723951
137	0xbdaf80ca	-0.085694864
138	0xbdddc1f4	-0.10828009
139	0x3e1488a3	0.14505248
140	0xbe468aa6	-0.19388828
141	0xbd0d2a9b	-0.03446446
142	0x3d9f2814	0.07771316
143	0x3d30649a	0.04306469
144	0x3dfd977f	0.12382411
145	0xbdc0b8f6	-0.094102785
146	0xbba99e48	-0.0051763393
147	0xbec01670	-0.37517118
148	0x3cf3ff21	0.02978474
149	0xbd2325d1	-0.039830986
150	0x3c855311	0.01627496
151	0xbdfd369e	-0.12363933
152	0x3d427acc	0.04748039
153	0xbe7284bf	-0.23683451
154	0x3dcaa9aa	0.09895642
155	0x3e479296	0.19489512
156	0x3d4be45b	0.049778324
157	0xbd89c156	-0.06726329
158	0x3da01d81	0.078181274
159	0x3df0ad7a	0.11751838
160	0x3cb6e9ff	0.022328375
161	0x3c03023e	0.00799614
162	0xbd2f5804	-0.042808548
163	0x3e0b7d2c	0.13621968
164	0x3e09d90e	0.13461706
165	0xbc7ec49e	-0.015549807
166	0x3dcf89b4	0.10133687
167	0xbda7a586	-0.08185868
168	0x3d00f792	0.0314861
169	0xbe35b420	-0.17744493
170	0x3b6644a2	0.0035136123
171	0x3ce675df	0.028132377
172	0xbdde52a1	-0.10855604
173	0xbd60a89d	-0.054848302
174	0xbc5dddfb	-0.013541694
175	0x3c68eb65	0.014216279
176	0x3d36649c	0.044529542
177	0xbd4eb720	-0.05046761
178	0x3d4a4d03	0.04938985
179	0xbebaeba9	-0.3650792
180	0x3d672b61	0.056437854
181	0xbe00705c	-0.12542862
182	0x3d6d640d	0.057956744
183	0xbdb7f0c3	-0.089814685
184	0x3dc834d8	0.09775704
185	0xbdd536d1	-0.10410846
186	0xbbee4859	-0.007271808
187	0x3de6e238	0.112736166
188	0xbd67240f	-0.056430873
189	0xbcb6c314	-0.022309817
190	0x3c3e6b4e	0.011622263
191	0x3da683f8	0.0813064
192	0xbc3a4fcd	-0.011371565
193	0xbda252df	-0.07925963
194	0x3c6b7c9d	0.014372972
195	0x3d0a5006	0.033767723
196	0x3d691582	0.056905277
197	0xbdf3a911	-0.11897481
198	0x3e3eca33	0.1863182
199	0x3c9921d8	0.018692896
200	0x3de6bc70	0.1126641
201	0xbdfacf9b	-0.12246629
202	0xbdb2b8f2	-0.08726682
203	0x3ca473e0	0.020074785
204	0xbe5e383e	-0.21701142
205	0x3dfbf003	0.12301638
206	0x3db2e4e2	0.08735062
207	0xbd8ac34a	-0.0677553
208	0x3d5cf147	0.053941038
209	0xbc0eb8fe	-0.008711098
210	0xbcf0a4e8	-0.029375508
211	0xbe9c4bdc	-0.30526626
212	0xbcb7bb14	-0.022428073
213	0xbcda7274	-0.026665904
214	0xbb115f6d	-0.0022182122
215	0xbd77b39e	-0.06047403
216	0x3afb3fe9	0.0019168827
217	0xbde88c2c	-0.11354861
218	0x3d7e54a6	0.062092446
219	0x3e20e66f	0.15712903
220	0x3d1b0f9b	0.03785668
221	0xbe07a41b	-0.13246195
222	0x3d40f94e	0.047112755
223	0x3c0d33c3	0.008618298
224	0xbd1981bc	-0.03747724
225	0xbdae60fe	-0.085145935
226	0x3d9b82d7	0.07593315
227	0x3d6fe6cf	0.058569726
228	0x3de1cc59	0.11025304
229	0xbe19b411	-0.15010096
230	0x3e08c18d	0.13355084
231	0x3df5a9c4	0.11995271
232	0x3dd271cc	0.10275611
233	0xbe5a1289	-0.21296133
234	0xbd0eebcf	-0.034892853
235	0x3dad3e64	0.08459166
236	0x3d9d854a	0.076914385
237	0x3d096645	0.033544797
238	0x3bc05272	0.0058692032
239	0xbc74a1a9	-0.014931121
240	0x3cb3371b	0.021876862
241	0x3dd7f2e8	0.105443776
242	0x3d4bb78c	0.04973559
243	0xbeabb529	-0.33536652
244	0x3d81c3e2	0.0633619
245	0xbdc78743	-0.09742596
246	0x3cb8655b	0.022509268
247	0xbc499df9	-0.01230573
248	0x3d91402c	0.07092318
249	0xbe1a7d09	-0.1508676
250	0x3bd6a835	0.0065508136
251	0x3e24dc55	0.16099675
252	0x3b80ace9	0.0039268625
253	0x3bf84b68	0.0075773485
254	0x3c43c78d	0.011949432
255	0x3cf7376b	0.030177793

sequential_8/conv2d_14/Conv2D f4 [64, 3, 3, 64]
0	0xbe07919d	-0.13239141
1	0x3e08bbb5	0.13352855
2	0x3e3a8bad	0.18217345
3	0xbd3538a4	-0.04424347
4	0x3d91a4ba	0.07111497
5	0xbde07f30	-0.10961759
6	0x3e265988	0.16245091
7	0xbdb70bd4	-0.08937803
8	0x3cd93770	0.026515692
9	0xbd33696f	-0.04380172
10	0xbc8e0c6a	-0.017339904
11	0x3de6f837	0.11277812
12	0xbc92419e	-0.017853554
13	0xbd4a8148	-0.0494397
14	0x3e403989	0.18771948
15	0x3dbeeb8b	0.0932227
16	0xbd4c0095	-0.049805243
17	0xbd9f117d	-0.077670075
18	0xbcd54552	-0.026034031
19	0xbbf28b74	-0.007401878
20	0xbe0150e3	-0.12628512
21	0x3ceebb86	0.029142153
22	0xbc9884ed	-0.018618071
23	0x3b7eeb6e	0.0038897651
24	0xbcfbe918	-0.030750796
25	0xbe07e261	-0.1326995
26	0x3d88f402	0.06687166
27	0xbe131d14	-0.14366561
28	0xbd4242d8	-0.04742703
29	0x3d5e35de	0.05425059
30	0xbe25e649	-0.16201128
31	0x3c9ac2e6	0.018891763
32	0x3e1018fd	0.14072032
33	0x3df11da8	0.117732346
34	0x3dccbff9	0.099975534
35	0xbe18e59d	-0.1493134
36	0xbe0ec959	-0.13943996
37	0xbd5c7938	-0.05382654
38	0xbb83687f	-0.0040102596
39	0xbdb6d03d	-0.08926437
40	0xbd06c1d8	-0.032899708
41	0xbda02df6	-0.07821266
42	0xbd6b91a8	-0.057511955
43	0x3d035cdf	0.03207099
44	0xbe798f9f	-0.24371193
45	0x3d880252	0.066410676
46	0xbd9d1292	-0.07669558
47	0x3d72fa8e	0.05932098
48	0xbc68c94f	-0.014208152
49	0x3d7ad8d9	0.06124196
50	0xbd8999a5	-0.067187585
51	0xbd844ed5	-0.064603485
52	0xbd172b7e	-0.03690671
53	0xbe00edec	-0.1259076
54	0x3c8b8ccc	0.01703491
55	0x3e032431	0.12806775
56	0x3d8546eb	0.06507667
57	0x3dd080a4	0.10180786
58	0x3df4b0e9	0.119478054
59	0x3d7e55dd	0.062093604
60	0x3b466302	0.0030271416
61	0xbc6e38da	-0.014539922
62	0x3e179c3e	0.14805695
63	0xbd135c00	-0.03597641
64	0xbe350368	-0.1767708
65	0x3da307ea	0.07960494
66	0x3e2235fd	0.15840907
67	0x3dd38a51	0.10329116
68	0x3e24dcbd	0.1609983
69	0xbe459d8c	-0.1929838
70	0x3e1b1916	0.15146288
71	0xbdd3c7e2	-0.10340859
72	0x3d2c4f51	0.04206783
73	0xbc803df1	-0.015654536
74	0xbdca09c8	-0.09865147
75	0x3dc9772e	0.09837185
76	0x3d6bd00c	0.057571456
77	0xbe016f6e	-0.12640163
78	0x3e2039fd	0.15647121
79	0x3d6aa977	0.05729052
80	0x3d7956c4	0.06087376
81	0xbdf7202b	-0.120666824
82	0xbcc1e713	-0.023669755
83	0xbb193cd1	-0.0023382197
84	0xbe0b8c93	-0.13627844
85	0xbccc7e88	-0.024962679
86	0xbd6450cd	-0.05574112
87	0xbd8c067a	-0.06837173
88	0xbd332d36	-0.04374429
89	0xbe13374a	-0.1437656
90	0xbd82a093	-0.06378283
91	0xbe074a69	-0.13211979
92	0xbdb167f2	-0.08662404
93	0x3d3f0e6f	0.046644624
94	0xbdc133e2	-0.09433724
95	0x3d945a8a	0.072438315
96	0x3e2321f6	0.15930924
97	0x3cb014fa	0.021494377
98	0x3c95d921	0.018292012
99	0xbe0bee86	-0.13665208
100	0xbe23b153	-0.15985613
101	0xbda63a2b	-0.081165634
102	0x3aead6cb	0.0017916796
103	0xbd2a5986	-0.041589282
104	0xbe037d86	-0.12840852
105	0xbdb05273	-0.08609476
106	0x3c981962	0.018566791
107	0x3d8f5f9f	0.0700066
108	0xbe95e981	-0.29279712
109	0xbdbcba37	-0.09215205
110	0x3ca6734c	0.02031865
111	0x3b5575e4	0.003257149
112	0x3caa9535	0.0208231
113	0xbbccebb2	-0.006253683
114	0xbd937134	-0.07199326
115	0xbcc49eb7	-0.024001462
116	0xbc303b35	-0.010756304
117	0xbd6a32d9	-0.0571774
118	0x3c7171e2	0.014736624
119	0x3ddbacdf	0.10726332
120	0xbb979aff	-0.0046266313
121	0xbd0c9a81	-0.034327034
122	0x3ded3694	0.115826756
123	0xba17fb9d	-0.0005797686
124	0xbc8efb42	-0.017453793
125	0xbd8daa0e	-0.06917201
126	0x3de077ab	0.10960325
127	0xbd932750	-0.07185233
128	0xbe504713	-0.20339613
129	0x3ca6190f	0.02027562
130	0x3e599e26	0.21251735
131	0x3cdaa71a	0.026691008
132	0x3e4787d4	0.19485408
133	0xbde81467	-0.113320164
134	0x3e26fc02	0.16307071
135	0xbd85e14c	-0.065371126
136	0x3d2d52d8	0.042315334
137	0x3c06f438	0.008236937
138	0x3c703187	0.014660246
139	0x3cb43949	0.021999972
140	0xbbf6fb5a	-0.0075372877
141	0xbe07362d	-0.1320426
142	0x3e803046	0.2503683
143	0x3d9e7423	0.07736995
144	0x3d38e279	0.045137856
145	0xbd1ba9be	-0.038003676
146	0x3d7fbc99	0.06243572
147	0x3d1d0c9d	0.038342107
148	0xbe3327ac	-0.17495602
149	0xbc136266	-0.008995628
150	0x3d8e220f	0.0694009
151	0xbd3cad0c	-0.046063468
152	0xbd94b886	-0.072617576
153	0xbd9e102d	-0.07717929
154	0x3d26ebea	0.04075233
155	0xbe317f51	-0.17333724
156	0xbcc29e7f	-0.023757217
157	0xbd1dc39e	-0.038516633
158	0xbde2280b	-0.11042794
159	0x3d9cb78e	0.07652198
160	0x3e2b2595	0.16713555
161	0x3d33db2d	0.043910194
162	0xbdad94b1	-0.08475626
163	0xbde050fd	-0.10952947
164	0xbd905a07	-0.07048421
165	0x3cce434f	0.02517858
166	0x3dbad7bd	0.0912318
167	0x3cd8820f	0.026429204
168	0xbdbdba2e	-0.092640266
169	0xbddea393	-0.10871043
170	0xbd5c0a35	-0.05372067
171	0x3d419f4e	0.047271065
172	0xbe85f08d	-0.26160088
173	0xbda9dcb0	-0.08294046
174	0xbca6a3e1	-0.020341815
175	0xbd94e6d2	-0.07270588
176	0x3d87488a	0.066056326
177	0xbcc32e56	-0.023825806
178	0x3d3048bf	0.043038126
179	0xbd8f142b	-0.069862686
180	0xba3bdda7	-0.00071665127
181	0x3db0e50a	0.08637436
182	0x3cf48a2e	0.029851045
183	0x3d72ca3d	0.0592749
184	0x3c096ef7	0.0083882725
185	0x3d8f1842	0.06987049
186	0x3d8259d6	0.06364791
187	0x3cb676aa	0.02227338
188	0xbb4e682d	-0.00314952
189	0xbc0c6d93	-0.008571046
190	0x3e5087bd	0.2036428
191	0xbb63791f	-0.0034709645
192	0xbe766f6b	-0.2406594
193	0x3c8fbca7	0.017546011
194	0x3e12a28d	0.1431982
195	0x3c8c6f0e	0.017142799
196	0x3dea5776	0.11442463
197	0xbbb1ce52	-0.0054262066
198	0x3dbe1242	0.09280826
199	0xbdf796a4	-0.12089279
200	0x3c5467dc	0.012964215
201	0xbd12792d	-0.035760093
202	0x3dd45726	0.10368185
203	0x3de3f6c6	0.11131053
204	0x3d63c28e	0.055605464
205	0x3d4c27c0	0.049842596
206	0xbdc19c88	-0.09453684
207	0xbd22eb58	-0.039775223
208	0xbb81b8b8	-0.003958788
209	0x3d1307af	0.035896
210	0xbc7ff341	-0.015621961
211	0x3cc2fecf	0.023803143
212	0x3c7c5a15	0.015402337
213	0xbe34d4c0	-0.17659283
214	0x3d2a90c4	0.041641966
215	0xbde00957	-0.109392814
216	0x3d63f48d	0.055653144
217	0xbe6a3dda	-0.22875157
218	0xbd379f85	-0.044829864
219	0x3d9e02b7	0.077153616
220	0xbd891f5a	-0.06695433
221	0xbd45bf39	-0.048278067
222	0xbe506076	-0.20349297
223	0x3dd862e1	0.10565735
224	0x3e143cf4	0.14476377
225	0x3d87a982	0.06624128
226	0xbd59ce60	-0.05317533
227	0x3d1aa214	0.037752226
228	0x3db00955	0.0859553
229	0x3cdec219	0.027192162
230	0xbb819d6e	-0.0039555347
231	0xbea3515a	-0.31898004
232	0xbd053e46	-0.03253009
233	0x3afc0f5f	0.0019230655
234	0xbca2ad9b	-0.019858172
235	0x3d481624	0.04884924
236	0x3abd35ba	0.0014435567
237	0x3e22a106	0.15881738
238	0xbd155506	-0.036458038
239	0xbc743658	-0.014905535
240	0x3d4c5091	0.04988152
241	0x3ccc35a9	0.02492793
242	0xbd57aead	-0.05265682
243	0x3d6b3847	0.057426717
244	0x3d31ffa8	0.043456703
245	0xbe11399b	-0.14182131
246	0xbbb9d7be	-0.0056714704
247	0xbe089ee8	-0.13341868
248	0x3cd07581	0.025446655
249	0x3d41276f	0.047156747
250	0xbbe8688a	-0.00709254
251	0x3d4760be	0.048676245
252	0x3dc24f4e	0.094877824
253	0x3bd45e6e	0.0064809835
254	0x3d0fa89b	0.035072904
255	0x3ce362d6	0.02775709

sequential_8/conv2d_15/Conv2D f4 [64, 3, 3, 64]
0	0xbe2859d0	-0.16440511
1	0xbe211834	-0.15731889
2	0x3d52be37	0.051450934
3	0xbd9282a7	-0.07153826
4	0x3d4c449c	0.04987012
5	0xbaf1053d	-0.0018388402
6	0x3ccfa23a	0.02534591
7	0x3d2b78db	0.041863304
8	0x3d605b08	0.054774314
9	0x3c0b4beb	0.008501987
10	0xbce197bf	-0.027538178
11	0xbe2f93a8	-0.1714617
12	0xbdc27855	-0.09495608
13	0x3d202c67	0.039104845
14	0xbd0b8051	-0.03405792
15	0xbe160b39	-0.14652719
16	0xbe3cd0f5	-0.18439086
17	0xbdedb698	-0.116070926
18	0x3d3a7336	0.04552003
19	0x3d299dec	0.04141037
20	0xbe056aa8	-0.13028967
21	0xbdc5e15f	-0.09662127
22	0xbdadafef	-0.08480822
23	0xbda788e1	-0.081804045
24	0xbcb9bb61	-0.022672357
25	0xbbbff781	-0.005858362
26	0x3dcf3570	0.10117614
27	0xbd35d56e	-0.044392996
28	0xbd0df8b8	-0.034661025
29	0xbc971ff9	-0.018447863
30	0xbe132748	-0.14370453
31	0xbc15ac10	-0.009135261
32	0x3d5efb52	0.054438896
33	0xba87e255	-0.0010367135
34	0xbd9640ee	-0.07336603
35	0xbd4e33e2	-0.050342448
36	0x3d6ae90f	0.05735117
37	0xbe02617e	-0.12732503
38	0xbce74235	-0.028229812
39	0xbd9a7e4e	-0.07543622
40	0x3c23c887	0.00999654
41	0xbd5bdd2e	-0.05367773
42	0xbded548e	-0.11588393
43	0xbd8b49a2	-0.06801154
44	0x39d8bfbe	0.0004134159
45	0xbc26d82e	-0.010183377
46	0xbdae2fe5	-0.08505229
47	0xbd1ae1c5	-0.037812967
48	0xbd50f616	-0.051015936
49	0x3d0cc38f	0.034366187
50	0x3d2b8bb2	0.04188127
51	0x3dc97da8	0.0983842
52	0x3cb10f00	0.021613598
53	0xbcdc3992	-0.02688292
54	0xbe22b43b	-0.15889065
55	0xbdfd5d79	-0.12371344
56	0xbd80b630	-0.062847495
57	0xbce87de2	-0.028380338
58	0xbde96915	-0.11396996
59	0xbda2a740	-0.07942057
60	0xbda56733	-0.08076324
61	0x3c236097	0.009971759
62	0xbd87f425	-0.06638364
63	0xbd614592	-0.054997988
64	0xbda0460b	-0.0782586
65	0x3d2a3b29	0.041560326
66	0x3d50d39d	0.05098306
67	0x3c03ad27	0.008036888
68	0x3d5541d4	0.05206473
69	0x3be6b66a	0.0070407884
70	0xbd1ccdbd	-0.038282145
71	0xbcb63a47	-0.022244586
72	0x3cbe2455	0.023210684
73	0xbd51b8d8	-0.05120167
74	0x3d984551	0.07435096
75	0xbe0834e2	-0.13301423
76	0xbd16d6f7	-0.0368261
77	0x3c8d0c31	0.017217727
78	0xbc1e3056	-0.009655079
79	0xbd4220d5	-0.047394592
80	0xbdf4ec28	-0.11959106
81	0xbd986ab0	-0.07442224
82	0x3de7c446	0.11316733
83	0xbcfb9012	-0.030708347
84	0xbdd2d713	-0.102949284
85	0xbe0d7bde	-0.13816783
86	0xbd8f9c2a	-0.07012208
87	0x3cf76a1b	0.030201962
88	0x3dd364ce	0.10321961
89	0xbdb1efbb	-0.08688303
90	0x3cd42ac9	0.025899308
91	0xbcda1a71	-0.026623936
92	0x3c7e0b04	0.015505556
93	0x3ce26318	0.027635142
94	0xbd65bac9	-0.056086335
95	0x3d5e3b9f	0.054256078
96	0xbcc94910	-0.024570972
97	0x3d4866b8	0.048926085
98	0xbd861c2b	-0.06548341
99	0xbbbcf5eb	-0.0057666204
100	0x3c896421	0.016771378
101	0xbe0079e1	-0.12546493
102	0xba402fee	-0.0007331361
103	0xbce99e9d	-0.028518016
104	0xbda5d85b	-0.08097907
105	0xbcb91fc2	-0.022598151
106	0xbdb844cf	-0.08997499
107	0xbd0806cd	-0.03320961
108	0x3c1099ec	0.00882576
109	0xbcedbec2	-0.029021624
110	0xbd8e05c2	-0.06934692
111	0xbe184507	-0.14870082
112	0xbda0d856	-0.07853763
113	0x3d31c1e1	0.043397788
114	0x3d352e2a	0.04423348
115	0x3db28403	0.087165855
116	0x3d3c4add	0.045969833
117	0xbd2d5f23	-0.042327058
118	0xbde7fee3	-0.11327913
119	0xbde37bf2	-0.11107625
120	0xbe15e44d	-0.14637871
121	0xbdaf4d05	-0.08559612
122	0x3cb3e20c	0.021958373
123	0xbcc044dd	-0.023470337
124	0x3b8e9783	0.0043515577
125	0xbd9c3c16	-0.07628648
126	0x3d5f7cd5	0.05456241
127	0x3bb27aa4	0.005446749
128	0xbcc2453a	-0.02371465
129	0x3d64a9b9	0.055825923
130	0x3c83cf18	0.016089961
131	0xbbfc251a	-0.0076948525
132	0xbce11d0f	-0.027479677
133	0x3d0af722	0.03392709
134	0xbb238a2c	-0.0024954183
135	0x3d8a264e	0.06745587
136	0xbd8afb65	-0.06786231
137	0xbd905f41	-0.07049418
138	0x3e379731	0.17928769
139	0xbe36ce61	-0.17852165
140	0xbd25984e	-0.040428452
141	0xbd8b0bb0	-0.067893386
142	0x3d66656b	0.056249063
143	0xbd528234	-0.051393703
144	0xbd69f6e1	-0.057120208
145	0x3c871849	0.016491072
146	0x3d65f931	0.05614585
147	0xbd81587d	-0.06315706
148	0x3d68058b	0.05664591
149	0xbc86814e	-0.01641908
150	0xbcb9b4cb	-0.022669217
151	0x3d04bc17	0.03240594
152	0x3e05903a	0.130433
153	0x3ca43178	0.02004312
154	0x3c08e006	0.008354193
155	0x3d25badd	0.04046141
156	0xbe00e686	-0.12587938
157	0xbbf69343	-0.007524879
158	0xbd04b81f	-0.032402154
159	0xbd77f698	-0.060537905
160	0xbc5f2391	-0.01361932
161	0xbb6d393e	-0.003619745
162	0xbaf5429e	-0.001871187
163	0xbcc55206	-0.024086963
164	0xbc94a590	-0.018145353
165	0xbd839c29	-0.064262696
166	0xbc56cbde	-0.013110129
167	0xbcc79fc0	-0.024368167
168	0xbce1e2cb	-0.027573964
169	0x3c88d79a	0.01670437
170	0xbd8db1dc	-0.069186896
171	0xbd9780c5	-0.07397608
172	0xbdf9ed17	-0.122034244
173	0xbd9349f4	-0.0719184
174	0xbd95deca	-0.07317884
175	0xbdb128e4	-0.086503774
176	0xbd9a19be	-0.07524441
177	0x3b15f4e8	0.0022881571
178	0x3b4d2c23	0.0031306825
179	0x3d3bbc2c	0.04583375
180	0x3c72c89b	0.014818336
181	0xbdd659ad	-0.10466323
182	0xbe3630f3	-0.1779211
183	0xbc2c7f0c	-0.010528337
184	0x3d80c1c8	0.06286961
185	0xbcef4f3e	-0.02921259
186	0xbdb3ff28	-0.087889016
187	0xbcb4fc7c	-0.02209305
188	0x3d307fda	0.04309068
189	0x3de45c61	0.111504324
190	0x3d17c438	0.037052363
191	0x3d669983	0.056298744
192	0xbd044f5b	-0.03230224
193	0x3cd9ee7d	0.026602978
194	0x3d3ec7f2	0.0465774
195	0xbd66e982	-0.056375034
196	0xbc05cee1	-0.008167
197	0x3c9ef9fb	0.01940631
198	0x3d9b8faf	0.07595765
199	0x3d0aa2fa	0.033846833
200	0xbccb80e2	-0.02484173
201	0x3b1631b4	0.002291781
202	0xbd835775	-0.064131655
203	0x3d97f1eb	0.07419189
204	0xbd522db6	-0.051313125
205	0xbcff5965	-0.031170556
206	0xbd9ccf93	-0.07656779
207	0xbd9e8e40	-0.07741976
208	0xbd70a871	-0.05875439
209	0xba09c988	-0.0005256166
210	0x3de61eb5	0.11236326
211	0x3d200b3b	0.03907321
212	0xbdcb37d9	-0.099227615
213	0xbbdbc98c	-0.006707376
214	0xbd9ca1f5	-0.07648078
215	0x3d3658e5	0.04451837
216	0xbda9bc41	-0.0828786
217	0xbdf0dc3e	-0.11760758
218	0x3dc41340	0.09573984
219	0x3d129319	0.035784815
220	0xbdad249f	-0.084542505
221	0xbd511804	-0.051048294
222	0xbd0c94db	-0.034321647
223	0x3d1fc691	0.039007727
224	0x3c15898c	0.009127032
225	0xbb8f8a66	-0.004380512
226	0x3d4efacb	0.050532144
227	0xbd32e340	-0.043673754
228	0x3cfc3fff	0.030792234
229	0xbd89d8f0	-0.06730831
230	0x3d608b5d	0.054820407
231	0xbd3d186c	-0.04616587
232	0xbca1a7d6	-0.01973335
233	0xbd7172d0	-0.058947384
234	0xbdadb218	-0.08481234
235	0xbdd89b04	-0.10576442
236	0x3c9d8a1b	0.019230893
237	0xbdd77ebc	-0.105222195
238	0xbd344c12	-0.04401786
239	0xbc4ef013	-0.01263048
240	0xbcb7b733	-0.022426223
241	0xbd8c917b	-0.06863686
242	0xbd047661	-0.032339457
243	0x3dbedee1	0.093198545
244	0x3daeecb4	0.08541241
245	0xbcc65f2b	-0.024215301
246	0xbd8dabd5	-0.0691754
247	0xbdb6e707	-0.08930784
248	0xbd379350	-0.044818223
249	0xbd82eb5b	-0.06392547
250	0xbcfaad26	-0.030600142
251	0xbd60a217	-0.05484208
252	0xbc99c734	-0.018771745
253	0xbd0e91c3	-0.034806978
254	0xbcb0e139	-0.02159177
255	0xbe8b461c	-0.27201927

sequential_8/conv2d_16/Conv2D f4 [64, 3, 3, 64]
0	0xbd1a4f13	-0.037673067
1	0xbe8b26b9	-0.2717798
2	0x3e08a500	0.13344193
3	0xbc8ad1d4	-0.016945757
4	0xbdc8487e	-0.09779452
5	0x3c6fedc4	0.01464409
6	0xbdb39266	-0.08768158
7	0xbd4e5834	-0.050377086
8	0x3db0ca58	0.08632344
9	0xbd5c3e90	-0.0537706
10	0xbddb420b	-0.10705956
11	0x3dd73bbe	0.10509442
12	0x3df78cad	0.12087379
13	0xbd3081ca	-0.043092526
14	0xbda12cd4	-0.078698784
15	0x3cb2c420	0.021822035
16	0xbbb979a3	-0.005660252
17	0x3d6ceb2b	0.05784146
18	0x3de1c846	0.11024527
19	0x3d8202d6	0.06348197
20	0xbc9e9da2	-0.019362275
21	0xbce74be8	-0.028234437
22	0xbda3a808	-0.07991034
23	0xbe15a074	-0.1461199
24	0xbb35ffd0	-0.0027770884
25	0xbd89f4ed	-0.06736169
26	0xbc40fbd4	-0.0117787905
27	0xbc181b6a	-0.00928388
28	0x3c81456a	0.01578017
29	0x3e13bef9	0.14428319
30	0x3ba2043e	0.0049443534
31	0x3d87f8bb	0.066392384
32	0x3c46a933	0.012125301
33	0xbd34de4f	-0.044157322
34	0xbdc32899	-0.09529228
35	0x3e094a95	0.13407357
36	0xbd8ecf40	-0.069731236
37	0xbd24e7b6	-0.04026004
38	0x3cb51e82	0.022109274
39	0xbe69053e	-0.22755906
40	0x3d2d6552	0.042332955
41	0xbe0bcf56	-0.13653311
42	0xbd4b33af	-0.049609836
43	0x3ddd978b	0.1081992
44	0xbd9710a1	-0.073762186
45	0x3d489d12	0.04897792
46	0xbe4d762f	-0.20064615
47	0x3def6b26	0.11690359
48	0x3c4c084c	0.01245315
49	0x3d992d71	0.074793704
50	0x3d8a8235	0.06763116
51	0x3d7c5481	0.061604027
52	0x3bec30c4	0.0072079618
53	0xbcfb6761	-0.030688943
54	0xbdc0982b	-0.09404024
55	0x3d6aab7e	0.057292454
56	0xbccdf0c2	-0.025139216
57	0x3db63d67	0.0889843
58	0x3e0bfb85	0.13670166
59	0x3e06b013	0.13153104
60	0x3d887c4e	0.06664334
61	0xbcb83484	-0.022485979
62	0x3bb0254d	0.0053755403
63	0x3e7f64b5	0.2494076
64	0xbc93a199	-0.018021392
65	0xbe6d6600	-0.23183441
66	0x3c2ede31	0.010673092
67	0x3d309e6b	0.04311983
68	0x3d0335d9	0.032033775
69	0xb9c060fe	-0.0003669336
70	0xbd560180	-0.052247524
71	0xbe43641f	-0.19081162
72	0x3db54843	0.088516735
73	0x3cdab5b0	0.026697963
74	0xbd8ae681	-0.067822464
75	0xbd3701fc	-0.044679627
76	0x3dbb7040	0.09152269
77	0x3a253f59	0.000630369
78	0xbe049c44	-0.12950236
79	0x3af8bab8	0.0018976545
80	0x3c99492d	0.01871165
81	0x3bbcbf4d	0.0057601095
82	0x3dc2639b	0.094916545
83	0xbd14ef5b	-0.03636108
84	0x3da35aec	0.07976326
85	0xbc2a05ae	-0.010377331
86	0xbdd839f8	-0.10557932
87	0xbd939d1b	-0.072077
88	0xbd5432a6	-0.051806115
89	0xbcd45661	-0.025920095
90	0x3d1e2d9a	0.038617708
91	0x3d88d717	0.0668165
92	0x3da2d979	0.07951636
93	0xbbc0005e	-0.005859419
94	0x3bf1fad1	0.007384636
95	0x3c564ccf	0.013079836
96	0xbd4ccbfb	-0.04999922
97	0xbd81571e	-0.063154444
98	0xbd827457	-0.06369846
99	0x3dce3818	0.10069293
100	0xbcde7f7a	-0.027160395
101	0x3c4a27c9	0.012338587
102	0xbcc0bc4a	-0.023527283
103	0xbdd0f6f9	-0.10203356
104	0x3c5edb5b	0.013602103
105	0xbe2d1e6d	-0.16906138
106	0x3d317335	0.04332276
107	0xbc44f3db	-0.01202103
108	0x3ca04975	0.019566277
109	0x3db2593d	0.08708427
110	0xbe66fdc1	-0.22557737
111	0x3d803a06	0.06261067
112	0x3cfc6c78	0.03081344
113	0x3d20a44d	0.03921919
114	0x3da0e172	0.078555
115	0x3d480c2e	0.04883974
116	0x3cbf385a	0.0233423
117	0xbc8d562f	-0.01725301
118	0xbd17d7e6	-0.03707113
119	0x3d85a06e	0.0652474
120	0x3c9f1c1f	0.019422589
121	0x3d9cdb83	0.07659056
122	0x3d87fdf1	0.06640232
123	0x3cb10758	0.021609947
124	0xbd23260a	-0.0398312
125	0xbb567581	-0.0032723846
126	0xbd0846d6	-0.03327068
127	0x3dc27ca6	0.09496431
128	0x3b22b899	0.0024829267
129	0xbe1a2149	-0.1505176
130	0x3c48b770	0.012250766
131	0xbd6ba112	-0.057526655
132	0x3cbaf9c5	0.022824178
133	0xbd38eede	-0.045149677
134	0xbcbad0a6	-0.02280457
135	0x3d58b192	0.05290372
136	0x3d1e049a	0.038578607
137	0xbca8e79b	-0.02061825
138	0xbe0673dc	-0.13130134
139	0xbd08f625	-0.033437867
140	0xbdae1f66	-0.085020825
141	0xbe256b85	-0.16154297
142	0x3d0bf8ee	0.034172945
143	0x3d75fa81	0.060053352
144	0x3c61112b	0.013737003
145	0x3c3376d9	0.010953628
146	0x3e3faa5d	0.18717332
147	0xbdc212e6	-0.09476261
148	0xbd739ac3	-0.059473764
149	0x3d71015b	0.058839183
150	0xbdcbac34	-0.099449545
151	0x3c6fc97a	0.014635438
152	0xbd92bf68	-0.07165414
153	0x3c85db60	0.016339958
154	0xbcda2d13	-0.026632821
155	0x3d727985	0.05919792
156	0x3d96408a	0.073365286
157	0x3cd643b9	0.02615534
158	0xbca69d5c	-0.020338707
159	0xbc7b6fcd	-0.01534648
160	0xbdb3dbda	-0.08782168
161	0x3d14c4a1	0.036320332
162	0x3d269637	0.0406706
163	0x3df7b482	0.12094976
164	0xbdb50417	-0.08838671
165	0x3d688b5b	0.056773525
166	0x3b3a9b90	0.002847407
167	0xbd80650e	-0.06269275
168	0xbd65e45e	-0.05612599
169	0xbdd93183	-0.10605147
170	0xbdb6ed28	-0.08931953
171	0x3d479153	0.048722576
172	0xbc6aca8e	-0.014330519
173	0xbd47c539	-0.04877207
174	0xbce2c652	-0.027682457
175	0x3d980e3f	0.07424592
176	0x3cba6980	0.022755384
177	0x3d6ec35e	0.058291785
178	0x3e02c704	0.12771231
179	0xbcf7356d	-0.030176843
180	0x39f30103	0.00046349326
181	0x3cf1ff11	0.02954057
182	0xbcc08d3e	-0.02350485
183	0x3c88e3b1	0.016710134
184	0xbc8b81e2	-0.017029706
185	0x3d388adc	0.0450543
186	0x3ac61520	0.0015112497
187	0x3d638212	0.055543967
188	0xbd4346d3	-0.047674965
189	0xbbd4d4b1	-0.0064950814
190	0xbbf04d3a	-0.007333425
191	0xbc1d76bc	-0.009610828
192	0xbd1744d3	-0.03693087
193	0xbe3a0eba	-0.1816968
194	0x3dae1b43	0.085012935
195	0xbb1dd3b0	-0.0024082474
196	0xbced2266	-0.028947067
197	0x3d2fabbb	0.042888384
198	0xbcd90a1f	-0.026494084
199	0x3b66434b	0.0035135325
200	0x3d57b310	0.052661
201	0xbd21428a	-0.039370097
202	0xbc78b8bd	-0.015180764
203	0x3dacc167	0.08435326
204	0x3e0eb4fa	0.13936225
205	0x3d08424e	0.033266358
206	0xbd95c2a7	-0.073125176
207	0x3da1dc74	0.07903376
208	0x3c83795d	0.016049081
209	0x3d44f69e	0.048086755
210	0x3deab85e	0.114609465
211	0x3dbba885	0.09163002
212	0x3d388517	0.0450488
213	0x3d0e2dce	0.03471165
214	0xbdb0f843	-0.08641102
215	0x3b0a1749	0.0021071008
216	0xbdf76552	-0.12079872
217	0x3c8da759	0.017291712
218	0x3d859bba	0.06523843
219	0xbcdf5df4	-0.02726648
220	0x3d327409	0.04356769
221	0x3e04a272	0.12952593
222	0x3ba3df04	0.005000951
223	0xbcd77ca4	-0.02630455
224	0xbc204569	-0.009782174
225	0x3da57105	0.080781974
226	0xbd8c2f98	-0.06845015
227	0x3de7dcfa	0.11321445
228	0xbd9d87a5	-0.07691888
229	0xbd95a812	-0.073074475
230	0xbcf27328	-0.029595926
231	0xbe03cb01	-0.12870409
232	0x3e09740a	0.13423172
233	0xbe10cc2a	-0.14140382
234	0x3da133a7	0.0787118
235	0x3c90eb8e	0.017690446
236	0xbd48b3d3	-0.04899962
237	0x3e661708	0.22469723
238	0xbe687d99	-0.22704162
239	0xbb36f1cf	-0.0027915125
240	0x3c728553	0.014802295
241	0xbd17069b	-0.036871534
242	0x3d6f48cf	0.058419045
243	0xbbdf49a3	-0.006814198
244	0x3d70fa22	0.058832295
245	0x3c9a4607	0.01883222
246	0xbda009e3	-0.07814386
247	0x3c93ebf7	0.018056853
248	0x3cf0729d	0.029351527
249	0x3dfaa801	0.122390755
250	0x3dc33165	0.09530906
251	0x3d0fac25	0.03507628
252	0x3d34b4c7	0.044117715
253	0x3d2d7b94	0.04235418
254	0x3d9b7f58	0.07592648
255	0x3e854d6d	0.26035634
